…
    checkpoint_save: 5000
    checkpoint_print: 200
    F_feature_layer: 34
    F_weights: 1.0
    F_lossfn_type: l1
    F_use_input_norm: True
    F_use_range_norm: False
    G_optimizer_betas: [0.9, 0.999]
    G_scheduler_restart_weights: 1
  ]
  opt_path: options/train_msrresnet_psnr.json
  is_train: True
  find_unused_parameters: False
  use_static_graph: False
  num_gpu: 1
  rank: 0
  world_size: 1

25-01-25 10:05:21.561 : Number of train images: 312,638, iters: 9,770
25-01-25 10:05:23.668 : 
Networks name: MSRResNet0
Params number: 1296000
Net structure:
MSRResNet0(
  (model): Sequential(
    (0): Conv2d(3, 64, kernel_size=(3, 3), stride=(1, 1), padding=(1, 1))
    (1): Identity + 
    |Sequential(
    |  (0): ResBlock(
    |    (res): Sequential(
    |      (0): Conv2d(64, 64, kernel_size=(3, 3), stride=(1, 1), padding=(1, 1))
    |      (1): ReLU(inplace=True)
    |      (2): Conv2d(64, 64, kernel_size=(3, 3), stride=(1, 1), padding=(1, 1))
    |    )
    |  )
    |  (1): ResBlock(
    |    (res): Sequential(
    |      (0): Conv2d(64, 64, kernel_size=(3, 3), stride=(1, 1), padding=(1, 1))
    |      (1): ReLU(inplace=True)
    |      (2): Conv2d(64, 64, kernel_size=(3, 3), stride=(1, 1), padding=(1, 1))
    |    )
    |  )
    |  (2): ResBlock(
    |    (res): Sequential(
    |      (0): Conv2d(64, 64, kernel_size=(3, 3), stride=(1, 1), padding=(1, 1))
    |      (1): ReLU(inplace=True)
    |      (2): Conv2d(64, 64, kernel_size=(3, 3), stride=(1, 1), padding=(1, 1))
    |    )
    |  )
    |  (3): ResBlock(
    |    (res): Sequential(
    |      (0): Conv2d(64, 64, kernel_size=(3, 3), stride=(1, 1), padding=(1, 1))
    |      (1): ReLU(inplace=True)
    |      (2): Conv2d(64, 64, kernel_size=(3, 3), stride=(1, 1), padding=(1, 1))
    |    )
    |  )
    |  (4): ResBlock(
    |    (res): Sequential(
    |      (0): Conv2d(64, 64, kernel_size=(3, 3), stride=(1, 1), padding=(1, 1))
    |      (1): ReLU(inplace=True)
    |      (2): Conv2d(64, 64, kernel_size=(3, 3), stride=(1, 1), padding=(1, 1))
    |    )
    |  )
    |  (5): ResBlock(
    |    (res): Sequential(
    |      (0): Conv2d(64, 64, kernel_size=(3, 3), stride=(1, 1), padding=(1, 1))
    |      (1): ReLU(inplace=True)
    |      (2): Conv2d(64, 64, kernel_size=(3, 3), stride=(1, 1), padding=(1, 1))
    |    )
    |  )
    |  (6): ResBlock(
    |    (res): Sequential(
    |      (0): Conv2d(64, 64, kernel_size=(3, 3), stride=(1, 1), padding=(1, 1))
    |      (1): ReLU(inplace=True)
    |      (2): Conv2d(64, 64, kernel_size=(3, 3), stride=(1, 1), padding=(1, 1))
    |    )
    |  )
    |  (7): ResBlock(
    |    (res): Sequential(
    |      (0): Conv2d(64, 64, kernel_size=(3, 3), stride=(1, 1), padding=(1, 1))
    |      (1): ReLU(inplace=True)
    |      (2): Conv2d(64, 64, kernel_size=(3, 3), stride=(1, 1), padding=(1, 1))
    |    )
    |  )
    |  (8): ResBlock(
    |    (res): Sequential(
    |      (0): Conv2d(64, 64, kernel_size=(3, 3), stride=(1, 1), padding=(1, 1))
    |      (1): ReLU(inplace=True)
    |      (2): Conv2d(64, 64, kernel_size=(3, 3), stride=(1, 1), padding=(1, 1))
    |    )
    |  )
    |  (9): ResBlock(
    |    (res): Sequential(
    |      (0): Conv2d(64, 64, kernel_size=(3, 3), stride=(1, 1), padding=(1, 1))
    |      (1): ReLU(inplace=True)
    |      (2): Conv2d(64, 64, kernel_size=(3, 3), stride=(1, 1), padding=(1, 1))
    |    )
    |  )
    |  (10): ResBlock(
    |    (res): Sequential(
    |      (0): Conv2d(64, 64, kernel_size=(3, 3), stride=(1, 1), padding=(1, 1))
    |      (1): ReLU(inplace=True)
    |      (2): Conv2d(64, 64, kernel_size=(3, 3), stride=(1, 1), padding=(1, 1))
    |    )
    |  )
    |  (11): ResBlock(
    |    (res): Sequential(
    |      (0): Conv2d(64, 64, kernel_size=(3, 3), stride=(1, 1), padding=(1, 1))
    |      (1): ReLU(inplace=True)
    |      (2): Conv2d(64, 64, kernel_size=(3, 3), stride=(1, 1), padding=(1, 1))
    |    )
    |  )
    |  (12): ResBlock(
    |    (res): Sequential(
    |      (0): Conv2d(64, 64, kernel_size=(3, 3), stride=(1, 1), padding=(1, 1))
    |      (1): ReLU(inplace=True)
    |      (2): Conv2d(64, 64, kernel_size=(3, 3), stride=(1, 1), padding=(1, 1))
    |    )
    |  )
    |  (13): ResBlock(
    |    (res): Sequential(
    |      (0): Conv2d(64, 64, kernel_size=(3, 3), stride=(1, 1), padding=(1, 1))
    |      (1): ReLU(inplace=True)
    |      (2): Conv2d(64, 64, kernel_size=(3, 3), stride=(1, 1), padding=(1, 1))
    |    )
    |  )
    |  (14): ResBlock(
    |    (res): Sequential(
    |      (0): Conv2d(64, 64, kernel_size=(3, 3), stride=(1, 1), padding=(1, 1))
    |      (1): ReLU(inplace=True)
    |      (2): Conv2d(64, 64, kernel_size=(3, 3), stride=(1, 1), padding=(1, 1))
    |    )
    |  )
    |  (15): ResBlock(
    |    (res): Sequential(
    |      (0): Conv2d(64, 64, kernel_size=(3, 3), stride=(1, 1), padding=(1, 1))
    |      (1): ReLU(inplace=True)
    |      (2): Conv2d(64, 64, kernel_size=(3, 3), stride=(1, 1), padding=(1, 1))
    |    )
    |  )
    |  (16): Conv2d(64, 64, kernel_size=(3, 3), stride=(1, 1), padding=(1, 1))
    |)
    (2): Upsample(scale_factor=2.0, mode='nearest')
    (3): Conv2d(64, 64, kernel_size=(3, 3), stride=(1, 1), padding=(1, 1))
    (4): ReLU(inplace=True)
    (5): Conv2d(64, 64, kernel_size=(3, 3), stride=(1, 1), padding=(1, 1))
    (6): ReLU(inplace=True)
    (7): Conv2d(64, 3, kernel_size=(3, 3), stride=(1, 1), padding=(1, 1), bias=False)
  )
)

25-01-25 10:05:23.692 : 
 |  mean  |  min   |  max   |  std   || shape               
 |  0.000 | -0.075 |  0.092 |  0.025 | torch.Size([64, 3, 3, 3]) || model.0.weight
 |  0.000 |  0.000 |  0.000 |  0.000 | torch.Size([64]) || model.0.bias
 |  0.000 | -0.033 |  0.034 |  0.008 | torch.Size([64, 64, 3, 3]) || model.1.sub.0.res.0.weight
…
